checkpoint.pth (torch_old, 28417 bytes, 6 tensors)

fc1.weight f4 [64, 37]
00000000: 9899 f0bc 2c01 98bd a340 753d 70ce b0be
00000010: 3ab0 a3bd cf16 0abd d49c b0bd 2462 773e
00000020: 5b30 18bd e5ab 133f aca3 b2bd 979a a73d
00000030: 80d5 85be 0d32 c0be 0051 023e 4564 3fbd
00000040: 5d5e ecbd fa7a a03d 6c04 1c3d 8adb 7e3d
00000050: c6a7 e03e 87ff d0bd 5f81 49be d02a 52be
00000060: e452 f5be f382 2b3e 6b3e 46be a252 48be
00000070: 0668 f2bd f9a4 a63d dab0 55be 8ddd 623e
00000080: d5f6 14bd f424 a3be b710 4b3e 40ce 12be
00000090: 8b8f 38bd 6c7d 6f3d 0079 e93d 34e8 123e
000000a0: 359b 3f3e 46c5 593d c05a 5abe 4eff d8bd
000000b0: 9e0f 3ebd 0481 303c 4e79 bb3d 3b36 123c
000000c0: 874c 8d3d bfe7 273d 588f c63c f4f4 d5bc
000000d0: 9710 da3e 328e d8be c259 d7be 564f 28bf
000000e0: cc5a fbbf 38ea 09be 6d3e 91bd dd30 8bbd
000000f0: 0f0a 66bc 570d 0e3d d5b8 21be 44e8 09bb
00000100: 9601 a23d aab3 803e 95a3 c73e a3d4 5c3c
00000110: 77b9 e73d 5fc0 de3d 92a3 fe3d c270 d33b
00000120: bce2 01bc 29e0 b0bb 8f74 6d3d 18c6 7d3e
00000130: 91ce 043e 36f6 0ebe a4e3 fe3c 82a6 37bf
00000140: 9c02 f23d ddd1 3e3e eb33 b13b 06d7 8ebe
00000150: 30cb febd 056f 633d ed36 c9bc a230 afbc
00000160: d448 a33d 203c 0cbf b11d 8c3e 7030 373d
00000170: ea99 883e c998 c13e 27e9 07bd 5c88 74bd
00000180: 4afc ebbd c242 1b3b 34a4 2ebc c48a 53be
00000190: 4bfb 063e f053 263e bb1b aa3d 2000 873c
000001a0: 9d42 9fbe d4e0 d93c 1747 7dbd f685 60bd
000001b0: a316 dd3c 8015 c6bc 3803 6dbd 8f60 f93d
000001c0: 32fb e33d c54b 0c3e a452 e73d 5725 573a
000001d0: d888 163d 82c3 133d 3736 963d 14cb d83d
000001e0: e435 9f3d c098 ab3b 4b23 2b3d 91f2 063d
000001f0: e96c 7d3d 250f c03c 55f7 24bd ff26 92bc
00000200: 3743 15bd 2f64 e3bc dc1d a4bc 27ff d73e
00000210: c445 20bf f470 00bf c845 1bbf 29ca 18c0
00000220: 0f7e 593d 6354 993d 2bee b83d 4dd2 fc3d
00000230: bc6e ff38 026c de3d ebef c73d 4a5a 9b3d
00000240: a178 063e a892 26bc 1f94 1f3c 08cd f23b
00000250: 688c 0dbe cd73 dcbd ddc6 02be 5996 95bd
00000260: a800 4dbe 7697 b73e 3019 afbe 84af 0cbf
00000270: 1952 8cbe 7a5d edbf e829 4fbd 8461 db3c
00000280: e53d 8cbd 19b0 48bd 5321 73bd d96c 0fbe
00000290: 8c14 42bd ae40 81bd 730e 083e af32 023e
000002a0: c688 f13c 2448 43bd ea54 0f3d dd1f 9ebd
000002b0: 7a51 283e 284d 843c 88ab bebd d825 503e
000002c0: cfad 2d3e 7bf1 203e b1c0 ca3d 15bf 9fbd
000002d0: c7ae f83d 7ed9 b83d 73b2 db3d 6c90 2b3c
000002e0: 5a52 813b afc2 93bd fa6d 76be 5013 1b3e
000002f0: 7b77 b2bc a89d b73d 3b71 883e 9329 adbe
00000300: 6e71 253c 4773 47bf c2a0 87bf 1ef6 94bd
00000310: e494 a43d ccbd f8bd 59a3 5bbe a382 6dbd
00000320: 398c 98bd 81dc f53c 7f43 b3bc 8f79 e5bd
00000330: 09da 18ba 11a0 6c3d a9ec 343c c5a7 92bc
00000340: def9 833e dd3f 1a3e 9ef5 71bd e43c bebd
00000350: 570a 863b 711f 0f3e aeff d53e 0d9d 45be
00000360: a572 1a3d 3fca 333e d303 d9bc cf82 403e
00000370: 7582 893c 1662 bd3c 15b8 70be 72cf 06bd
00000380: 2f62 bd3d 6c30 233c e2e9 17be 769e 5dbd
00000390: 472a 81be f3d2 95bd 98a5 fb3d fe89 e53e
000003a0: 8190 653c 6e32 7dbd 4cb5 263e 2c56 25bb
000003b0: d4fd 8d3e eb64 41bf 5f49 21bf 3f7e 6a3e
000003c0: f1ef 823e 96fe e6be 7a0f 94bd eee6 c3bc
000003d0: 7c73 d4bd f590 17be 0b5a 8f3e ee61 b3be
000003e0: 30fa 80bd d99d e53d 9c89 683b 19eb c63e
000003f0: 5e7c 52bd e5fe 31be c0dc eb3d 65c0 20be
-0.029370114 -0.074220985 0.059876096 -0.345325 -0.07992597 -0.03371316 -0.086236626 0.24158531
-0.03715549 0.57684165 -0.08722624 0.081837825 -0.2613945 -0.37538186 0.12726212 -0.046726484
-0.11541436 0.07835956 0.038090155 0.062221088 0.43878 -0.10204988 -0.19678257 -0.20524144
-0.47914803 0.16749172 -0.19359748 -0.19562772 -0.11836247 0.08136935 -0.20868245 0.22154827
-0.03636821 -0.3186413 0.19830595 -0.1433649 -0.04505877 0.05846922 0.11400032 0.14346391
0.1871155 0.05316665 -0.21323681 -0.105955705 -0.046401612 0.010772947 0.091539964 0.008924062
0.06899362 0.040992495 0.024238274 -0.02611778 0.42590782 -0.42295986 -0.42060667 -0.6574606
-1.9637084 -0.13468254 -0.07091985 -0.06796429 -0.014040484 0.03468069 -0.15793164 -0.0021042982
0.07910459 0.25137073 0.3899199 0.013478431 0.113146715 0.108765356 0.12433542 0.0064526508
-0.007927593 -0.0053978157 0.057972487 0.24782598 0.12969424 -0.1396111 0.031114407 -0.71738446
0.11816904 0.18634744 0.0054078004 -0.27898425 -0.12441099 0.0555258 -0.024562323 -0.021385495
0.07972875 -0.54779243 0.27366403 0.044723928 0.26679927 0.37811878 -0.033181336 -0.059700355
-0.1152273 0.0023690914 -0.010659266 -0.20658404 0.13181798 0.16242957 0.083060704 0.016479552
-0.3110551 0.026596464 -0.061835375 -0.054815255 0.026988333 -0.024180174 -0.057864398 0.1217662
0.11131896 0.13700779 0.11295059 0.0008207163 0.036751598 0.036075123 0.073345594 0.10585609
0.07773951 0.005236715 0.041781705 0.032946173 0.061871443 0.023444721 -0.040274937 -0.01784086
-0.036441054 -0.027757732 -0.02003377 0.42186853 -0.62606454 -0.5017235 -0.6065335 -2.3873389
0.053098734 0.074867986 0.09029802 0.12344799 0.000121799734 0.108604446 0.097625576 0.07585581
0.13131954 -0.0101668015 0.009739905 0.0074096955 -0.13823092 -0.10764275 -0.12771173 -0.07304067
-0.20019782 0.35857743 -0.34198904 -0.54955316 -0.27406386 -1.8544152 -0.050577074 0.026779898
-0.06847743 -0.048996065 -0.059357952 -0.14006366 -0.047382876 -0.06311165 0.13286762 0.12714647
0.029484164 -0.04767622 0.03499309 -0.07720921 0.16437331 0.016150072 -0.09310061 0.20326936
0.16960834 0.15717117 0.09900034 -0.07800118 0.12142711 0.09025858 0.10727396 0.010471445
0.0039465846 -0.07214867 -0.2406539 0.15144086 -0.021785488 0.089656174 0.26648888 -0.3382078
0.0100978445 -0.77910274 -1.0595934 -0.07273506 0.08036211 -0.12145576 -0.21449031 -0.057985913
-0.0744862 0.030012371 -0.02188277 -0.11204826 -0.00058308296 0.05776984 0.011042752 -0.017902264
0.2577657 0.15063424 -0.05907213 -0.09288958 0.004090588 0.13976838 0.4179663 -0.19298191
0.03770699 0.1755762 -0.026491081 0.187999 0.01678584 0.02311806 -0.23507722 -0.03291268
0.09247243 0.009960275 -0.14835313 -0.0541062 -0.25227568 -0.07315626 0.12287444 0.44831842
0.014011503 -0.06181567 0.16280097 -0.0025228364 0.27732718 -0.75544614 -0.6300258 0.22899722
0.25573686 -0.4511611 -0.072295144 -0.023913827 -0.103735894 -0.1480139 0.27998385 -0.35035652
-0.062977195 0.11211748 0.0035482412 0.3885124 -0.051388137 -0.17382391 0.11516714 -0.15698393

fc1.bias f4 [64]
00000000: e843 b2bc 292c 8bbd 4516 43be ce51 c5bc
00000010: cc27 2c3e 055e acbd a9aa 11be fb2e a73d
00000020: c08f c53c fc44 32be d2e8 683e 5e12 0b3e
00000030: 73ef 113d f360 eb3d 9e94 48bd 74f2 bbbc
00000040: b5ff 053e 744a 36be f2e4 06be 05d9 0ebd
00000050: e3d6 05be e274 1abd 6bc4 733d f87f 9e3b
00000060: ecec 27be fa57 993d 9066 153d 88b9 2d3c
00000070: aa74 3c3e 2cd4 693e 0ef3 2abe 5524 e4bd
00000080: 831d f63d d55d d63c b508 00be 12b6 0a3d
00000090: 1858 c2bc 35aa 3a3d f6e7 98bc cc43 9dbc
000000a0: e3ea 4ebe 97f7 78bd a40e 4dbe ab22 e03e
000000b0: f231 ee3d ca09 05be 7de1 543d 206b 82be
000000c0: 7c89 243c e93b a8bd ff3e 26be 1b5a b13c
000000d0: 623a 17be 076c 2ebe dd57 6cbe 9ef0 b43c
000000e0: ee0f 003e 48ca 01be 791b 8dbc 5f0e 0cbe
000000f0: 9a2e 483b 8f21 e53d 639b d9bc 71af 963d
-0.021760896 -0.06795532 -0.19051464 -0.02408686 0.16812056 -0.0841637 -0.14225258 0.08163258
0.024116397 -0.17409128 0.22745064 0.13581225 0.035628747 0.11493101 -0.048969857 -0.02294276
0.13085826 -0.17801839 -0.13173273 -0.034874935 -0.13070254 -0.037709124 0.05951349 0.0048370324
-0.16398972 0.07487483 0.036474764 0.010603316 0.18403879 0.22834843 -0.1669428 -0.11139742
0.12017348 0.02616779 -0.12503321 0.033865042 -0.023723647 0.04557248 -0.018665295 -0.019197367
-0.2020679 -0.060782995 -0.20025116 0.4377645 0.1163062 -0.12992015 0.051972855 -0.25472355
0.010042544 -0.08214552 -0.16234969 0.021649411 -0.14768365 -0.17033397 -0.23080392 0.022087391
0.12506077 -0.1267482 -0.017225014 -0.13677357 0.0030545355 0.111880414 -0.026563352 0.073576815

fc2.weight f4 [64, 64]
00000000: 971d 093c ee07 763e 1764 903e bb39 dd3d
00000010: 51b4 88be ee6c 86be c705 293e 7744 0c3e
00000020: 4f39 923b d130 93be 4641 c23d 01fc 023d
00000030: e991 01bf a31e 163f 4149 47bf 8639 7b3c
00000040: b3c1 9dbe 1cd6 8abe 0d38 82be 9edf 533d
00000050: 3b9f c2be d14f 39be 0ffc ebbd 5d48 b2bb
00000060: de72 d7be 4dd6 86be 2f81 b13e 6cef 75be
00000070: 1628 363e 00cc 56bd c677 9fbe 505c 853e
00000080: 0a67 8ebe dccf 94be 47a8 f3be 7caa 10bf
00000090: 040e 62be 125a 223e a345 193e 873a 183a
000000a0: f870 30bf d9c1 1f3e 70ef 8b3e 0683 36be
000000b0: 852e 17ba c74f 4fbc be76 07bf 388f e0bb
000000c0: 7354 76be f5f3 49be 4ad0 4ebd 52a1 2ebd
000000d0: d384 b53d 438f 92be 868a cf3d 5b5c 443d
000000e0: 2af8 123e 58c3 25be ce6b c4be 3dec cdbe
000000f0: 9e48 a93d ddff c03e 935d a5be 6f2a eabd
00000100: 1394 08bd 957f 993e ffc1 cd3c 3cbe 263f
00000110: 6ef2 bb3c d892 e9be 4aba 083e a415 3ebd
00000120: b630 2cbe e2a9 833e a1c8 91be 3829 f4bd
00000130: 462f 26be af80 553e da59 b5bb 8071 a93e
00000140: 955b 963e bafb c8bd 5473 acbd 9009 793e
00000150: 1808 11bb b3c7 06bf 41c1 a2be d665 a73c
00000160: fe78 77be 7bcf 38be 5f39 0a3e 8c66 56be
00000170: 60b1 44bc 489a ecbe ba21 373d aa24 3c3e
00000180: 84ad 113c a58b bc3e 9eab d6bc 0526 433e
00000190: a7fe fe3d ef22 d83d f07d 2cbe 767e 6dbf
000001a0: dbf5 c6be ecff b33e ad39 483d 822a 71bd
000001b0: 8c9d 7fbd d62f cfbe ca17 15be 4ca1 6cbe
000001c0: 0b38 c8be ae50 81be a681 b3be 147c 3a3e
000001d0: 8075 c3bd 1fc5 88be e851 62be 2d35 81be
000001e0: ca6c 10be 8fcd 8bbd 1263 fdbc 0508 ccbd
000001f0: c147 a7bd 3e2d 1bbd 5cb3 b83a 6cfb bdbd
00000200: 68ef 8e3c 7f49 c5be 48ba f5bc 725e a7be
00000210: 5df4 483c 2b05 c73d e82d 53be b675 3cbe
00000220: fb3e c2bd 6f96 4dbe 0d05 cbbd 134a 28bd
00000230: e35d a63e 2caa 983e 167f 47bd 0d8f 263d
00000240: 4c6e 783e 29d2 b3bd 6f0b e63d ddbb 8bbe
00000250: 1e88 76bd 893f dfbe e725 f23d 8399 bb3d
00000260: 5310 11bd 3ef3 cc3d dc22 603e 425f 6a3e
00000270: 7b3a 5d3e 0a79 603e a5b8 58bc 998a 17be
00000280: 3383 d8bd 2a5e bbbe 0d10 3cbf fcf3 cf3d
00000290: 1003 013e ec89 96be e068 f3be f093 38be
000002a0: e410 79bd 5285 183d c350 04be e844 18be
000002b0: 0397 25be c27c 96be 27e9 88be dd82 b0bc
000002c0: df16 b9bd 1b57 e63d 454b 41be 6518 ddb9
000002d0: 24c5 e9be 37e4 873e fe7d 6bbd 94cd 66be
000002e0: 7847 84bd dac9 563e d890 233d e7ea 66be
000002f0: 36d5 5abd e726 063e 7847 e33d 98b6 d43d
00000300: db94 33bd b00f 313c fbf7 17bf 65b2 1ebf
00000310: 40f7 a4be db76 1dbf baf1 b5be 4d00 52bc
00000320: ba8a 60bf 7748 51be 65a1 c13d 2c52 873e
00000330: 352f dcbd a5b5 30be a89c d6be 8b6d 063e
00000340: a746 5b3d 15ea 99be 697a 0dbf 8326 a83e
00000350: 4a07 9cbe f465 1cbf 3091 cf3d 132c cabe
00000360: cb8a f2be ccaa 29be abde 5cbd dcd1 d6be
00000370: a546 83be 3dfb 74be aef7 a4be 0d9e 1bbf
00000380: c3a4 a1bf 4a74 98be 7e72 b1be e86b efbe
00000390: eb04 47bf 9252 273e db1a c5be 08ca 03bf
000003a0: 5fc9 72be d38d 27bf 4d51 c0bd f897 523d
000003b0: 3960 4e3e b635 c13d 0576 08bd d5e4 5cbf
000003c0: 58f3 20bf d21d 15bf 186f f4bd 978b f1be
000003d0: 0802 c8be 4d01 8bbe f681 e73d b987 b6be
000003e0: cf4b d23d 2303 94bf bce6 cfbe 175c 733d
000003f0: f3e7 f43d 62df f33d 9770 efbe 28fe 01be
0.008368871 0.24026462 0.28201362 0.10802027 -0.2670007 -0.26254982 0.1650611 0.13697992
0.004462398 -0.2874818 0.09485106 0.03197861 -0.50613266 0.586405 -0.7784615 0.015333539
-0.30811843 -0.27116477 -0.25433388 0.05172693 -0.38012108 -0.18096854 -0.11522686 -0.0054407553
-0.42079824 -0.26335374 0.34668872 -0.24017113 0.17788729 -0.052440643 -0.31146067 0.2604699
-0.27812988 -0.29064834 -0.47589323 -0.5651014 -0.22075659 0.15854672 0.1496797 0.0005807061
-0.68922377 0.15601291 0.27331114 -0.17823419 -0.0005767125 -0.012653298 -0.5291556 -0.0068530105
-0.24055652 -0.19721968 -0.05049161 -0.042634316 0.08863225 -0.28624925 0.10133843 0.04793964
0.1435248 -0.16187799 -0.38363498 -0.40219298 0.08265804 0.37695208 -0.32297954 -0.11433875
-0.03334434 0.2998015 0.025116919 0.65134025 0.022942748 -0.45619845 0.13352314 -0.046407357
-0.16815457 0.25715548 -0.2847338 -0.11921924 -0.16228971 0.2084987 -0.005534393 0.33094406
0.29366747 -0.09813638 -0.084204346 0.24320054 -0.0022130068 -0.52648467 -0.31788066 0.020434301
-0.24167249 -0.18047898 0.13498448 -0.20937556 -0.01200518 -0.46211457 0.0447099 0.18373361
0.008891467 0.3682529 -0.02620488 0.19057472 0.12450915 0.10553538 -0.16844916 -0.9277109
-0.38859448 0.3515619 0.04888313 -0.05887843 -0.062406108 -0.40466183 -0.14559856 -0.23108405
-0.39105257 -0.25256866 -0.3505985 0.18211395 -0.09543896 -0.2671289 -0.22101557 -0.25235882
-0.14104 -0.068263166 -0.03093103 -0.09962467 -0.08167983 -0.037884943 0.0014091539 -0.092764705
0.017448142 -0.38532636 -0.029996052 -0.32689244 0.012265292 0.097177826 -0.2062298 -0.18404278
-0.09484669 -0.20076917 -0.09913073 -0.041086268 0.32493505 0.2981733 -0.048705183 0.040663768
0.24260825 -0.08780319 0.112326495 -0.27291766 -0.060188405 -0.4360316 0.118236355 0.091601394
-0.03541596 0.10007332 0.21888298 0.228879 0.2160434 0.21921173 -0.013227616 -0.14798965
-0.10571899 -0.3659528 -0.7346199 0.10153958 0.12598825 -0.294021 -0.4754095 -0.18025184
-0.060807124 0.03723652 -0.12921433 -0.14870036 -0.16170888 -0.29392058 -0.2674038 -0.021546775
-0.090375654 0.11247083 -0.1887637 -0.0004217058 -0.4565822 0.26541302 -0.057493202 -0.2253936
-0.06458944 0.20975438 0.039933056 -0.22550546 -0.05342599 0.13100778 0.11097616 0.103863895
-0.04384313 0.010806963 -0.59362763 -0.6199096 -0.32219887 -0.61509484 -0.35535985 -0.0128174545
-0.8771168 -0.204378 0.09454612 0.2642988 -0.107511915 -0.17256792 -0.41916394 0.13127725
0.053534176 -0.30061403 -0.5526491 0.32841882 -0.3047431 -0.6109307 0.10135114 -0.3948675
-0.47371516 -0.1656906 -0.05392329 -0.41956985 -0.25639835 -0.23923965 -0.32220215 -0.6078804
-1.2628406 -0.29776222 -0.34657663 -0.46762013 -0.7774188 0.16340092 -0.38497052 -0.5148015
-0.2370963 -0.6545078 -0.09390507 0.05141446 0.20153894 0.09434073 -0.033315677 -0.8628667
-0.62871313 -0.5824863 -0.11935252 -0.4717681 -0.3906405 -0.2714943 0.11304085 -0.35650423
0.102683656 -1.1563457 -0.40605724 0.059413996 0.11958303 0.11907841 -0.46765587 -0.12694609

fc2.bias f4 [64]
00000000: ff0d 033d 39d0 a9bd 2d95 1b3e 7cea 673e
00000010: 6eb7 903e 379d b0be 6844 80bc 389a eb3d
00000020: 92bd 143f ec53 3e3f f1b3 af3d c6ae 973e
00000030: baf6 9b3d 07eb 1dbe bab2 dabd c7a2 9b3e
00000040: 77f5 8dbc d00c 55be cc44 4a3e 4036 153e
00000050: 8f6c 043e 82f8 573e b586 17be 4476 113e
00000060: f1b1 32be addf a3be 081a e2bc b9ce 55bd
00000070: aa1c 8c3e aa13 e53e 41e5 e33c 1040 8a3c
00000080: 81d0 013e 022d c73d 20bc ec3d 3583 aebd
00000090: 83ff 793e 02f0 72be 2dd3 3f3f 5d70 87be
000000a0: 92f2 41bd 1424 4b3f 5113 bd3d 5842 37be
000000b0: 350d 0a3f 19c2 9bbd 72e1 153f 7d95 18bd
000000c0: aef1 4e3e a3ad ccbd cbd9 8dbd ec94 243f
000000d0: 2dcf 1a3e 6775 dfbc c913 843e f570 ef3c
000000e0: 0c54 cebd 992d 1fbe bfd9 c3bd e65e 4bbd
000000f0: 21ca ed3d 1264 a23e 5b88 b73d 75a0 40be
0.03199577 -0.082916684 0.15193625 0.22648042 0.28264946 -0.34494945 -0.015657619 0.11504024
0.5810176 0.74346805 0.08579243 0.2962553 0.07615419 -0.15421687 -0.10678621 0.30397627
-0.01732896 -0.20805669 0.19752806 0.14571476 0.12932037 0.21090892 -0.1479748 0.14205271
-0.17450692 -0.3200659 -0.027600303 -0.0521991 0.2736562 0.44741565 0.027819278 0.01687625
0.12677194 0.097253814 0.115593195 -0.085211195 0.24413876 -0.23724368 0.74931604 -0.26452914
-0.047350474 0.79351926 0.092322 -0.17896402 0.539264 -0.076053806 0.5854713 -0.037251938
0.20209381 -0.09994056 -0.06926306 0.64289737 0.15118094 -0.027277661 0.25796345 0.029228667
-0.100746244 -0.15544738 -0.09563016 -0.04965105 0.11610819 0.31716973 0.089615546 -0.1881121

fc3.weight f4 [4, 64]
00000000: f106 95be f899 d03d c595 cb3d e82f 50be
00000010: 68c7 4e3e e558 3dbe 5fcb e33e ae0b 163d
00000020: 1015 233e cdb4 2d3e 9ce4 293d 8241 c93d
00000030: 6737 a33d f1ff 18bf 985d 6ebc 5963 1d3e
00000040: 4a0b 02be 8dc7 373e a74d 6e3e ff2e d03c
00000050: 05a4 fa3e 2e44 943e 72fd babc da0c c43d
00000060: 3a49 15bf 9ddb 53be b321 d4bd b9cb cdbe
00000070: 7ee1 693e 1984 713e 39b7 38bf 7e11 9b3d
00000080: 9971 253e e68c 413e 54d5 c63c 08f5 663e
00000090: 6bb7 6e3e 1317 8fbe 32e8 6e3e bebc 91be
000000a0: 0ef3 7d3e c2dd 483e 61d3 513e d3ff 3ebe
000000b0: 2861 1b3e 2f33 b0bd 9272 643e 8765 44bd
000000c0: e6f5 3d3e d1ce bb3d 0f39 b6bd c09c 623e
000000d0: 43a0 213e f74a 7c3e 3669 0c3e 5ee7 fe3d
000000e0: bb5b d4be 92cc dc3d 9964 1f3d 1c27 863d
000000f0: 962a 19bf bb87 e33d d330 943d 1152 313d
00000100: 39a5 b43e 1362 383e 057e f73d 31a3 c1bd
00000110: 8778 2f3e 3e0c 93be 57a3 de3e 4b2e 9ebc
00000120: d2a6 fa3d bf8e 5a3e 0b5f cdbc 18ce 053e
00000130: e87f 053c 4b7e acbd b0df 2bbd 313c 623e
00000140: 0bee 93bc 7af6 443e 9a93 723e 3e2c 283e
00000150: 25dc a23e da27 983e 2d44 16bd a2f3 1f3e
00000160: d3f7 46be 7faa 60be 24ec c53c fce8 003e
00000170: d1c5 b43e 91e3 4d3e cac7 ac3c 36b5 883e
00000180: 79e4 4abd fe2f a33d 40b7 bbbc 27ee b5bd
00000190: c6f8 213e a7e6 d6bd 86cf 823e 5e63 08be
000001a0: e13f 4b3e d55c 763e 34da 8f3e 3d29 39be
000001b0: c6e4 463e 67f2 19ba 9b70 413e 0afe ccbc
000001c0: 5379 683e f827 e43d 6248 d6bd 9f10 493e
000001d0: 361c 493e bb9d e03d 2e99 d33d e45b 783e
000001e0: 94aa b8be 22f7 393c 68ea 643e b889 593e
000001f0: dc76 8a3b a313 ff3d 5999 f0bd 5e77 243e
00000200: 7816 07be 9ca1 d3be a65b fa3e b52f 9abd
00000210: 28bd 703e 8906 eabd 0fad 7d3e e87d 583e
00000220: 8812 d83d 5c73 4d3e 5bd9 b6be 34c5 a13d
00000230: 0e4d 273e c41a 9dbe ea16 66bd 5fec 913e
00000240: f892 b43c 4119 003d acfb 853e f068 a63c
00000250: 7a33 883e a0d5 c33e b657 85be 5bce 04bc
00000260: 5a02 40bd 9f01 5ebe 54e1 5a3e 8c70 963e
00000270: 8d2f f13e cd7f b93e c12e 85be 16c6 06be
00000280: e596 a3bd 5217 cb3b 9d6a 4f3e c6fe cc3e
00000290: 1192 a23d 0c06 15bd 41fc 683e 07af ccbd
000002a0: 0652 d33e 2b13 6f3e d65b 883e 84e1 e43e
000002b0: 17bb 563e 37bb 28be 33f9 423e 557a de3e
000002c0: 78ec 263e ecec a63e e489 a9be a680 9e3e
000002d0: 80b7 fabb e74e 223e 7be7 363d 07cd 583e
000002e0: b6a8 5cbe 7138 a43e d124 dc3e d9c5 913e
000002f0: 9f9b 9dbe 4806 303e 3f94 66be c2f9 b1be
00000300: a458 023f 078f 023f efdc ba3e 1649 82bf
00000310: 33b8 873e 97d3 59be 0f51 e33d ecbc 743e
00000320: 7ad5 0e3e d5d0 993e 6ed8 973e f5a0 24be
00000330: 1cec 703e d350 96be 6e4a a93c 4a21 103e
00000340: 71d0 2f3e 2ca2 02bf c5e0 743e 68d2 353e
00000350: 95b9 e73d fa62 1e3f 1373 95be a21e a13e
00000360: 6a0c b0bd c279 eabd 0fc9 eb3d e918 983e
00000370: e846 a73d c889 1f3e f942 febe 5dea adbc
00000380: 72fc 3bbd 7716 a53e 8a8d 9abe 0f95 0f3e
00000390: 333b 2b3c 53f3 a6be fd10 883e 123e 71be
000003a0: 7dde 593d 0fde 8a3e 4e64 d13e 3941 68be
000003b0: 88c1 2f3e 6914 c5be eeb4 413e 0c54 b4be
000003c0: f17b 3b3e 805c 06be 7f8a ee3e c642 233e
000003d0: 4bb2 d83d 4aca 2f3e 5b07 613e 8132 8f3e
000003e0: c971 e8be 66eb 81be 98f1 10be 5dfb e7be
000003f0: d44a 10bf 6499 5f3d 0576 17bf 5b0b 773e
-0.29106858 0.10185617 0.09940676 -0.20330775 0.20193255 -0.18490942 0.44491097 0.036632232
0.15926003 0.16963501 0.041477785 0.09826948 0.079695515 -0.59765536 -0.014548682 0.1536993
-0.12699619 0.17947216 0.2327181 0.025413034 0.48953262 0.28958267 -0.02282593 0.09572764
-0.5831486 -0.20689245 -0.1035799 -0.4019449 0.22839925 0.23585548 -0.72154576 0.07571696
0.16156615 0.18901405 0.024271645 0.2255441 0.23312156 -0.27947292 0.23330763 -0.2846431
0.2479975 0.19615844 0.20490791 -0.18652277 0.15173781 -0.086035125 0.2230933 -0.047948387
0.18550834 0.091703065 -0.08897602 0.22130108 0.15783791 0.24637972 0.1371201 0.124464735
-0.41476235 0.10781206 0.038914297 0.06550428 -0.59830606 0.11109873 0.07235875 0.043291155
0.35282305 0.18006162 0.12084583 -0.094549544 0.17135821 -0.28720278 0.43483993 -0.019309184
0.1223885 0.21343516 -0.025069734 0.130669 0.008148171 -0.08422526 -0.041961372 0.22093274
-0.018057844 0.19234648 0.23689118 0.16423127 0.31808582 0.29717904 -0.03668611 0.15620282
-0.19430475 -0.21940039 0.024160452 0.12588876 0.35307172 0.20106341 0.02109136 0.26700753
-0.049534295 0.07968138 -0.022914529 -0.088833146 0.15817556 -0.10493212 0.25548953 -0.13319156
0.19848587 0.2405885 0.28096163 -0.18082137 0.19423208 -0.00058726076 0.18890612 -0.025023479
0.22702532 0.11140436 -0.10463025 0.19635247 0.19639668 0.10967585 0.10331951 0.24253803
-0.3606764 0.011350425 0.22355044 0.21243942 0.004225595 0.12454917 -0.11747999 0.1606116
-0.13192165 -0.41334236 0.48898047 -0.07528631 0.23509657 -0.11427028 0.24773048 0.2114178
0.105504096 0.20063537 -0.35712704 0.07898942 0.16337988 -0.30684483 -0.056174196 0.2850065
0.022042736 0.031274084 0.26168573 0.02031371 0.26601774 0.3824892 -0.2604348 -0.00810584
-0.046877243 -0.21680306 0.21375018 0.2938274 0.4710659 0.36230317 -0.26012233 -0.13161501
-0.07987765 0.0061978484 0.20255513 0.40038127 0.07938016 -0.03638272 0.22752477 -0.09994321
0.41273516 0.23347156 0.26632565 0.44703305 0.20969807 -0.16477667 0.19040374 0.43452707
0.16301143 0.32602632 -0.33113015 0.30957526 -0.0076512694 0.15850411 0.04465435 0.21171962
-0.21548733 0.3207431 0.4299684 0.28471258 -0.30782792 0.17189896 -0.22517489 -0.34760863
0.50916505 0.5099949 0.36496684 -1.0178554 0.2650772 -0.21272121 0.11099445 0.23900193
0.13948622 0.3004214 0.2965731 -0.16077025 0.23527569 -0.2935854 0.020665374 0.14075199
0.17169358 -0.51028705 0.23913868 0.17756045 0.11314694 0.61869776 -0.29189357 0.31468683
-0.08596118 -0.11449005 0.11512958 0.29706505 0.08167821 0.15579903 -0.4966047 -0.021229917
-0.045895047 0.32243702 -0.3018611 0.14021705 0.010451126 -0.32607517 0.2657546 -0.23558834
0.053190697 0.27122542 0.4089684 -0.2268113 0.1716367 -0.38492134 0.18916675 -0.35220373
0.18308999 -0.13121223 0.4659004 0.15943441 0.10580882 0.17167011 0.21975462 0.2796822
-0.4539931 -0.25374907 -0.1415466 -0.45308962 -0.5636418 0.054589644 -0.5916446 0.24125426

fc3.bias f4 [4]
00000000: 2fd2 1b3f 3d35 d83e 1b38 913e d0dd c73e
0.6086759 0.42228118 0.28363118 0.39036417
